…
.execute_input":"2025-03-17T05:23:57.842508Z","iopub.status.idle":"2025-03-17T05:24:13.557645Z","shell.execute_reply.started":"2025-03-17T05:23:57.842488Z","shell.execute_reply":"2025-03-17T05:24:13.556816Z"}},"outputs":[{"output_type":"display_data","data":{"text/plain":"model.safetensors:   0%|          | 0.00/1.22G [00:00<?, ?B/s]","application/vnd.jupyter.widget-view+json":{"version_major":2,"version_minor":0,"model_id":"e5f4bcfd65734d87bd49c7335d8f8eaa"}},"metadata":{}},{"execution_count":11,"output_type":"execute_result","data":{"text/plain":"Eva(\n  (patch_embed): PatchEmbed(\n    (proj): Conv2d(3, 1024, kernel_size=(14, 14), stride=(14, 14))\n    (norm): Identity()\n  )\n  (pos_drop): Dropout(p=0.0, inplace=False)\n  (rope): RotaryEmbeddingCat()\n  (blocks): ModuleList(\n    (0-23): 24 x EvaBlock(\n      (norm1): LayerNorm((1024,), eps=1e-06, elementwise_affine=True)\n      (attn): EvaAttention(\n        (q_proj): Linear(in_features=1024, out_features=1024, bias=True)\n        (k_proj): Linear(in_features=1024, out_features=1024, bias=False)\n        (v_proj): Linear(in_features=1024, out_features=1024, bias=True)\n        (attn_drop): Dropout(p=0.0, inplace=False)\n        (norm): Identity()\n        (proj): Linear(in_features=1024, out_features=1024, bias=True)\n        (proj_drop): Dropout(p=0.0, inplace=False)\n      )\n      (drop_path1): Identity()\n      (norm2): LayerNorm((1024,), eps=1e-06, elementwise_affine=True)\n      (mlp): SwiGLU(\n        (fc1_g): Linear(in_features=1024, out_features=2730, bias=True)\n        (fc1_x): Linear(in_features=1024, out_features=2730, bias=True)\n        (act): SiLU()\n        (drop1): Dropout(p=0.0, inplace=False)\n        (norm): LayerNorm((2730,), eps=1e-06, elementwise_affine=True)\n        (fc2): Linear(in_features=2730, out_features=1024, bias=True)\n        (drop2): Dropout(p=0.0, inplace=False)\n      )\n      (drop_path2): Identity()\n    )\n  )\n  (norm): Identity()\n  (fc_norm): LayerNorm((1024,), eps=1e-06, elementwise_affine=True)\n  (head_drop): Dropout(p=0.0, inplace=False)\n  (head): Linear(in_features=1024, out_features=10, bias=True)\n)"},"metadata":{}}],"execution_count":11},{"cell_type":"code","source":"for param in model.parameters():\n    param.requires_grad = False\n\nfor param in model.head.parameters():\n    param.requires_grad = True","metadata":{"trusted":true,"execution":{"iopub.status.busy":"2025-03-17T05:24:13.558917Z","iopub.execute_input":"2025-03-17T05:24:13.559249Z"
…
